best_model.pt (torch, 673141 bytes, 62 tensors)

embedding.proj.weight f4 [64, 126]
00000000: 3418 943d 798c 9c3d 71d7 71bc 25fc ab3d
00000010: bee2 6bbc d4bc 983c ccfe 2bbd 1cfa 643d
00000020: 7185 a53d 032c 8dbd 91e6 a43d 483c a83c
00000030: 69eb 7a3d 0861 843c 138f 303d 750a 7abc
00000040: d1a1 913d 2580 683c 3eb5 44bd 4330 df3c
00000050: f29a 2dbd 6615 80bc 5487 f5bc 03ca 673d
00000060: 4c8c 9dbd 1ec8 0cbd a43e e8bc e71e 5fbd
00000070: e116 383c 3866 b4bd abff 9d3d a327 97bd
00000080: 784d 873d 7b3d 413c be13 d2bc 3dde 4a3d
00000090: f1c5 233c ad58 983d 68b0 7e3b 074b debc
000000a0: ce5a c43c 7805 dabc d50b 183d 091a a33d
000000b0: 333c 373d 3e35 29bd f8ce 543d 1a00 013c
000000c0: 0571 2b3d 8955 62bd ae7c c6bd 80ee 07bd
000000d0: d40c 8abd c1b2 8c3d 3ff4 d03c 82e8 143d
000000e0: 8217 b03c 23cb 06ba 095c 893d 2045 91bd
000000f0: 5d95 013c 25c3 7bbd 6ca2 9c3c 97e3 07bd
00000100: 7f64 de3c 63c3 8ebc e30d 9f3d d866 5cbd
00000110: 98b9 30bd c955 47bd 1a84 a23d 4009 103d
00000120: 1ac5 b43d 7344 97bd 2be4 a9bd 3226 86bd
00000130: 7702 7cbd 6bff 133d b71a e63c b9d0 8f3d
00000140: 2dfc 13bd 38be 85bd 6628 363d ca4a eebc
00000150: 393f 513d a652 acbc 8cff 643d 599b 93bd
00000160: 64fc 32bd e49c f23c 0353 513c e39f dabc
00000170: af29 6e3d 6764 643d ac29 8cbd f332 2bbd
00000180: 28ca a03d b589 06bd f222 eabc 78ec adbd
00000190: 0141 53bd 6455 c63c 5c6a 94bc 46c0 8bbd
000001a0: 56bd c53b d023 84bd b3f7 a0bd 7fdc 38bd
000001b0: ae70 a0bd b901 71bd 5194 bb3d 95d6 9d3c
000001c0: 2672 d53c 71f9 a9bd 1353 82bd df09 06bd
000001d0: d586 813c 1e29 a8bd ac60 26bd 4d65 55bd
000001e0: d396 c03a c87a 0dbd 0063 b6bb d7f7 69bd
000001f0: 49f0 79bd d003 56bd bbfb 0cbd b29d 92bd
00000200: 423c 8e3d d4ee a1bc 496f 903d 4248 db3c
00000210: a887 9cbd 5023 693d e1aa e4bc bafc fdbc
00000220: c52d 9fbd 1bee bebd 68ed ee3c 1439 c6bc
00000230: b0a7 0a3d a3a6 90bd 2fa7 7f3d 8b98 83bd
00000240: 5a3b 1ebc 5fb0 563c b9a5 4d3d f466 9c3d
00000250: ba61 973d 30cb 86bd b592 e53c 04d1 39bd
00000260: 87ba b6bb ec50 88bd bd3c a03d ea5c 7dbd
00000270: d33d 4b3d c98d f53c 6f87 0d3d f010 3cbd
00000280: 2ab0 a03d ca09 d83c 8c7f 703c 6746 a3bd
00000290: b3ed 333d c43c 73bc e22a 25bd c3f8 a63d
000002a0: e68d 9d3c 2968 42bd f3c1 18bd bb9b 18bb
000002b0: 1fcf 523d 1da5 6ebc ab06 45bd a1e0 ddbc
000002c0: 0ff1 6cbd cd79 f83c 6933 8d3d 8476 9cbd
000002d0: 61c8 a73c ca95 483d 452f c33c 2956 06bd
000002e0: 3921 513d bf0a 623d 8947 fe3c 1e92 4bbc
000002f0: 6431 7ebc 1d8b 583c 957a 67bc 5ffa e4bc
00000300: eb25 5c3d 2519 a33d 5c64 9abc 2553 c3bc
00000310: a647 303b 6a21 4abc 1f69 9f3c d27f ce3c
00000320: b0c7 b3bd 2dad 18bd e912 9f3d 1f8f 093d
00000330: 1141 8939 3624 44bd 185f 84bd 8dc6 99bd
00000340: 4821 ccbc 1db4 ae3c 543a 773d 4e61 2e3d
00000350: 0397 acbd 4252 4dbd dfb1 6cbc 811b af3d
00000360: feab 9a3c 8dd7 8ebc 3003 fb3c fd68 ecbc
00000370: 356c 57bd f3b5 6f3d 30d4 17bd e9fa 5abc
00000380: 9ac8 b8bd 51aa 743d a7cc 8d3d 82fc 063d
00000390: f8fa 61bd b65f a8bd 438b 9cbd 507d 913d
000003a0: a9f1 403d b758 923d 5519 443d d40d d53c
000003b0: 5ae4 eaba a20b 8dbd 8f24 97bd 7cbf a4bd
000003c0: 0a86 2d3d fc9d 1dbd 8b37 91bc 97b6 3ebd
000003d0: 946e 4bbc f15e 7cbd c469 6ebd 9c55 053d
000003e0: 3b7a c7bc a706 5a3d 550d dcbc 6d7a 7bbd
000003f0: 19d4 41bc a9b6 2abd ebb7 b5bc 3edb a6bd
0.07231179 0.076439805 -0.014760838 0.08397702 -0.014397321 0.018644728 -0.04199104 0.055902585
0.080820926 -0.0689316 0.080517896 0.020536557 0.06125966 0.01615955 0.043105196 -0.015261282
0.07110942 0.014190708 -0.04802441 0.027244693 -0.042384095 -0.015635204 -0.029971756 0.056589138
-0.07692775 -0.034370534 -0.028350182 -0.05447283 0.0112359235 -0.08808559 0.077147804 -0.07380607
0.06606573 0.011794443 -0.02564418 0.04952835 0.009995923 0.074387886 0.003886247 -0.027135385
0.02396908 -0.026613936 0.03712066 0.0796395 0.044735145 -0.04131054 0.051955193 0.007873559
0.04185583 -0.055257354 -0.096917495 -0.033186436 -0.06740728 0.06870032 0.02550709 0.03635455
0.021495584 -0.0005141964 0.067070074 -0.07093263 0.007909146 -0.0614654 0.019120418 -0.03317603
0.02714753 -0.017427152 0.077663206 -0.053809017 -0.043145746 -0.048665795 0.079353526 0.03516507
0.08826657 -0.073861025 -0.08295473 -0.06550254 -0.06152579 0.036132257 0.02808891 0.070222326
-0.036129165 -0.06530422 0.04447212 -0.029088397 0.051085684 -0.021035504 0.05590777 -0.072073646
-0.04369773 0.029615827 0.012776139 -0.026687568 0.05814522 0.055759814 -0.06843886 -0.041796636
0.07851058 -0.03284617 -0.028581116 -0.084923685 -0.051575664 0.02421064 -0.018117122 -0.068237826
0.0060345335 -0.06452143 -0.07859745 -0.045132156 -0.07833992 -0.058839533 0.091591485 0.01926736
0.026055407 -0.0829953 -0.063635014 -0.032724258 0.015811363 -0.082109675 -0.040619537 -0.05209856
0.0014693387 -0.03454092 -0.005566001 -0.057121124 -0.06102017 -0.05224973 -0.034419756 -0.07158984
0.06945087 -0.019767202 0.07052476 0.026767854 -0.07643062 0.056918442 -0.027913513 -0.031004298
-0.07772402 -0.09322759 0.029165938 -0.024197139 0.033851326 -0.070630334 0.062415298 -0.0642558
-0.009657705 0.013103574 0.050206874 0.07636824 0.07391687 -0.06581724 0.028024057 -0.04536535
-0.005576435 -0.066560596 0.07824085 -0.061856188 0.049619507 0.029974835 0.034552988 -0.04591459
0.07846101 0.026371855 0.014678847 -0.079724126 0.04392786 -0.014846031 -0.0403241 0.08152916
0.019232702 -0.047462616 -0.03729434 -0.0023286182 0.051467057 -0.014565733 -0.048102062 -0.02708465
-0.05784708 0.030331517 0.06894571 -0.076397926 0.02048129 0.048970975 0.02382625 -0.032797012
0.051057074 0.05518603 0.03103997 -0.012424974 -0.015514705 0.013216761 -0.014128347 -0.027951417
0.0537471 0.0796378 -0.018846683 -0.023843357 0.0026898175 -0.012337068 0.019459305 0.025207434
-0.08778322 -0.03727453 0.07767279 0.033583757 0.00026179155 -0.047886096 -0.0646345 -0.07508574
-0.024918213 0.02132612 0.06035836 0.042573266 -0.08427241 -0.050127275 -0.014446705 0.08550168
0.01888084 -0.017436767 0.030641168 -0.028858656 -0.05259343 0.05852313 -0.037067592 -0.013365486
-0.09022637 0.05973274 0.069238 0.032955654 -0.055170983 -0.082213804 -0.076437496 0.071039796
0.047105465 0.07145827 0.04787572 0.02600757 -0.0017920837 -0.068869844 -0.0738002 -0.08044335
0.042364158 -0.038480744 -0.01772668 -0.04656085 -0.012416501 -0.06161398 -0.058206335 0.032552347
-0.024350276 0.053229 -0.026861826 -0.06139605 -0.011830353 -0.041678105 -0.022182425 -0.08147286

embedding.proj.bias f4 [64]
00000000: 9f1d 5a3d 5254 e73c 7fda 89bd 466c 4f3d
00000010: 27f5 a23d 31df 61bd f389 abbd 47b2 b1bd
00000020: 8051 5abd e00f 20bd b536 4ebd 2e3e 9bbd
00000030: bc86 4f3d 6b03 b43d 41bb 8f3d 0baf 503d
00000040: ad87 1f3d ae56 1bbd 12dd 8fbd 7172 4ebd
00000050: b3ad 2d3d 8b65 893c a5f5 0c3c 036d 5ebd
00000060: 8f8a 2ebd 0942 2dbd f0ad 03bc 3de4 94bc
00000070: b464 143c 671f fbbc a3a5 18bc 86bd 51bd
00000080: 7094 3f3d 9c02 97bd c161 953c c599 a8bd
00000090: 72e5 45bd 94e8 b93d 314b 61bc 9aa0 5bbc
000000a0: d9cf 2e3d 1ed7 9ebd 1282 a7bc 52a4 ebbb
000000b0: c54c e13b 1798 3dbc 1e30 6ebd 96d1 a0bd
000000c0: b888 efba bdf3 983d 5783 29bd 549f 2d3c
000000d0: 8de9 5c3d 9510 b5bd 7d13 9b3d b3d5 983d
000000e0: a683 1ebd 8b9c 9e3d 008e 6f3d 8850 973d
000000f0: 0b4d a13d 0d30 923c 7080 473d 35b4 2bbd
0.053250905 0.02823845 -0.06731128 0.050640367 0.07956915 -0.055144493 -0.08375921 -0.08676582
-0.05330038 -0.03907764 -0.05034514 -0.07580219 0.050665602 0.087897144 0.07018138 0.050948184
0.03894775 -0.03792446 -0.07024588 -0.05040211 0.04240198 0.016772052 0.008603488 -0.05430318
-0.04261261 -0.042299304 -0.008037075 -0.018175239 0.009057213 -0.030654622 -0.009316835 -0.051206134
0.04677242 -0.073735446 0.01823509 -0.08232454 -0.04831452 0.09077564 -0.013750837 -0.01340499
0.042678688 -0.07755874 -0.020447765 -0.0071912194 0.0068756067 -0.011571906 -0.058151357 -0.07852475
-0.0018274998 0.074683644 -0.04138502 0.010597069 0.05393367 -0.088410534 0.075720765 0.07462635
-0.03869977 0.07744702 0.05848503 0.07388407 0.07876023 0.017845178 0.048706472 -0.041919906

encoder.layers.0.self_attn.rel_emb f4 [79, 16]
00000000: 88a4 9cbf bf59 a9bf daee 0f3e 09fb 87be
00000010: a1d1 593e af35 0f40 0315 0b3f 6f09 2dbf
00000020: 1faf 923f 601e 03bf bb6c b4bf f641 e4bc
00000030: ddb5 89bf 4c1f 3cbf 905e 8dbf 3c68 25c0
00000040: 917d a5bf e546 3abf 3ab1 953e d656 f03f
00000050: d47d c73f da61 bdbe 351d 223f 5438 bb3e
00000060: 3145 b4bf 638f 01c0 f0db d83b c145 15bf
00000070: af4b 863f 1742 cebf e4fb 18bd 46af 01c0
00000080: 9b9b f9be 9764 60bf a6d0 c4be add3 be3e
00000090: b363 e63e 2dd5 b3bf 3de0 aabf e6f7 72bf
000000a0: 764d 5bbf 5405 04bf 8530 f63e bcfa 19bf
000000b0: 284c 233f bdce 82bf a919 9cbf 8a39 d03d
000000c0: 4207 423e d354 e2bf bb83 523f a886 61bf
000000d0: 153e b0bf be6e c5be 7ea3 233f 8ecc 8cbe
000000e0: 4b2b a8bf 7b83 033f 9695 a0bf b010 11bf
000000f0: ebab eebe bc22 c3bf d63b 0abf 077d ed3e
00000100: ca17 5cbf ba42 74bf 914c bc3e d318 88be
00000110: 63d1 11c0 b475 bbbf 8095 e8be 32d9 b33f
00000120: a224 ab3f a5ee 9f3e beac c43f 1a06 56bd
00000130: 1ddf 4cbe 4168 643f b313 f83f 7e78 d0bf
00000140: 7da8 dfbf d49c 443e c289 39be 5114 e93e
00000150: eca7 65bf 976e ebbe 73f3 18c0 12e5 493f
00000160: 7613 2e3f 63fb 90be f9dd 743e b41a 0cbf
00000170: dcd9 123f ed67 753f 70d7 65bf 89ab 5d3f
00000180: 6095 24be 9c2d 513f 2855 0240 b8a0 3ebf
00000190: 70e1 98bf 1de6 a93e 987b 72bf 11c1 0a3f
000001a0: 5752 1cc0 841c 923f 5b92 9ebf e4c7 4fc0
000001b0: 2ba5 893e 289d 8abf 7534 03bf 3569 ccbe
000001c0: 1e55 2b3f 5584 a3bd 80ad 41bf b9bc a1bf
000001d0: 21e3 df3f 3c19 63bf 0896 62bf 4d51 a43f
000001e0: 456f 293d ab1a f9be 1031 91be 86d1 a8bf
000001f0: 4b19 023e 8999 03be f77b c5be a93c 8ebf
00000200: 65f2 0340 003d 82be 38bd e63f e7ba 5cbe
00000210: 829e 833f d223 b0be 902a 44be ee80 87be
00000220: abd5 36bf ecfe 863f 1b90 ce3f 3203 6fbd
00000230: e74c e0be 2309 913f 944b e63e 5037 dcbf
00000240: 6498 0040 8cb4 2b3f d7ea d73f 40bd a03f
00000250: 3b02 d4bf d0dd 9bbc 9ade ed3f 6f1f 573f
00000260: 9cc8 9d3f b7e9 2740 2339 e93f 2622 c03f
00000270: 6ab6 a63e 0347 0cbe 558d d03f bd35 933e
00000280: 7e54 873f 1dfc 9abe 79e4 bb3f a7e3 473e
00000290: a626 9dbf 8eff 94be 3eb1 0640 5ec3 eabe
000002a0: 7549 a53f 47ea a9bf b778 19be 38e0 3c3f
000002b0: b5f9 7ebf 316e 363f 012c 1840 4431 aabf
000002c0: 4fe0 dbbf e562 14bf 0761 1a3f 4955 a8be
000002d0: ac19 20bf ba5d d7bf 4708 59bf 9fe6 6bbf
000002e0: 15ca 473f b90e 1640 5dcb 8dbf 14db 8fbf
000002f0: 2e9d 68bf b952 e93e 646c 2ebf de91 88bf
00000300: da0b 413f f346 5ebf 84d3 113f e083 253f
00000310: ecbb 07be e8da 2dbc 7f8a 91bf c70f 243f
00000320: 4096 693f de91 813d 60b9 4d3f 7eae f13c
00000330: 1aa1 3dbf f19e 4fbe d3b8 213f 3fab 273e
00000340: e2a5 1040 544a 0c40 49d5 efbf 02c6 e23f
00000350: d987 1040 f8da 9dbe 1de6 1b3e 0e8d e2be
00000360: 756d 98bd a39e 463f 1514 0840 c831 40bd
00000370: 2f03 1fbe 1aee efbe 6239 28bb eff5 68be
00000380: da3a eebf 936d 3fbf 4348 223e 9959 e4be
00000390: f941 923f 9c72 233e 420c 3abe acec c4bf
000003a0: 6c9e 57be 3d78 30bf dab2 da3f fd77 1c3f
000003b0: 2b77 15c0 6731 e0bd 02cb 8dbe 6d50 66bf
000003c0: 0684 14bf 316f 01c0 82b1 0b3f 3253 2e3e
000003d0: 2029 a3bd b7b2 2d3e 9d80 74bf 7328 4f3d
000003e0: 14b6 88be f2a6 14bd cc94 863f aa2b a03f
000003f0: 1807 663f 689e fcbf 68b0 e43f 0248 033f
-1.2237711 -1.3230513 0.14055958 -0.26558712 0.21271373 2.2376516 0.54328936 -0.6759252
1.1459693 -0.51218224 -1.4095682 -0.027863484 -1.0758625 -0.73485255 -1.1044483 -2.584487
-1.2928945 -0.72764426 0.29236776 1.87765 1.5585275 -0.36988717 0.63325816 0.36566412
-1.4083616 -2.0243766 0.0066180155 -0.5830956 1.0491847 -1.6113919 -0.037349597 -2.0263228
-0.4875153 -0.8765349 -0.38440436 0.3727087 0.4499794 -1.4049431 -1.3349682 -0.94909513
-0.8566507 -0.5157063 0.48083892 -0.60148215 0.6378808 -1.0219342 -1.2195331 0.10167225
0.18948081 -1.7682136 0.82232255 -0.88096094 -1.3768946 -0.38561052 0.63921344 -0.27499813
-1.3138212 0.513725 -1.254565 -0.5666609 -0.46615538 -1.5244975 -0.5399755 0.4638445
-0.859738 -0.95414317 0.36777166 -0.2658144 -2.278405 -1.4645295 -0.4542656 1.4050658
1.3370554 0.3123676 1.5365217 -0.052251913 -0.20006986 0.8922158 1.9381012 -1.6286771
-1.7473294 0.1920045 -0.18118957 0.45523313 -0.89709353 -0.4598281 -2.389859 0.7886516
0.67998445 -0.28316793 0.23912801 -0.54728246 0.5736368 0.95861703 -0.89781857 0.86589867
-0.16072607 0.8171022 2.0364475 -0.7446399 -1.1943798 0.33183375 -0.9471984 0.54200846
-2.4425256 1.1414952 -1.2388414 -3.2465754 0.26883826 -1.082921 -0.5125192 -0.39924017
0.66926754 -0.07984225 -0.75655365 -1.2635719 1.7491189 -0.8871038 -0.8851018 1.2837311
0.04136588 -0.4865316 -0.28357744 -1.3188941 0.12704961 -0.12851538 -0.3857114 -1.1112262
2.0616696 -0.25437164 1.8026495 -0.21555673 1.0282748 -0.3440233 -0.19156861 -0.26465553
-0.7141978 1.0546546 1.6137727 -0.058352657 -0.43808672 1.1330913 0.44979537 -1.720438
2.0093012 0.6707237 1.6868542 1.2557755 -1.6563181 -0.019026667 1.8583558 0.8403234
1.2326846 2.6236398 1.8220562 1.5010421 0.32561046 -0.13698964 1.6293131 0.28751937
1.057266 -0.30270472 1.4679099 0.19520436 -1.227742 -0.29101223 2.104568 -0.45852178
1.2913042 -1.3274621 -0.14987455 0.7377963 -0.9959977 0.7126189 2.3776858 -1.3296285
-1.7177829 -0.579634 0.603043 -0.32877567 -0.6253917 -1.6825478 -0.84778255 -0.92148775
0.7804273 2.3446486 -1.1077687 -1.1238732 -0.9086484 0.45570925 -0.6813414 -1.0669515
0.7540871 -0.8682701 0.5696337 0.6465435 -0.1325528 -0.010611273 -1.1370391 0.64086574
0.9124489 0.0632665 0.80360985 0.02950215 -0.74073946 -0.20275475 0.63172644 0.16373919
2.2601247 2.1920366 -1.8736964 1.7716677 2.2582915 -0.30831122 0.152245 -0.4424824
-0.07442752 0.7758581 2.1262257 -0.046922475 -0.15528558 -0.46861345 -0.0025668968 -0.22750066
-1.861171 -0.7477657 0.15847878 -0.44599608 1.1426383 0.15961689 -0.18168738 -1.5384727
-0.21056527 -0.6893347 1.7085831 0.6112059 -2.3353984 -0.10946923 -0.27693945 -0.8996647
-0.5801395 -2.0224116 0.5456773 0.17023924 -0.07966828 0.16962706 -0.9550875 0.050575685
-0.26701415 -0.036292024 1.0514159 1.2513325 0.89854574 -1.9735842 1.7866335 0.5128175

encoder.layers.0.self_attn.u f4 [4, 16]
00000000: d268 f43f 155e f03e ac9a 2d3f 1b5c 953f
00000010: 3f83 a53e cb2e 93be 9d35 ed3e 4957 08bf
00000020: e176 8f3e db10 e3bf 0b7f bcbe 0151 7a3f
00000030: c488 c13d f6fa cb3e 9dae c2be 3d26 1dbf
00000040: e857 68bf 940d 8a3f ceb6 d83e 4af1 d13f
00000050: 691d 313f cfe7 26bf afd4 f03e 5af2 adbc
00000060: c8de 55bf 8ba5 21c0 3de0 0540 54bd 123e
00000070: defe 953e 125c 37bf 2026 6f3f d5f9 83bf
00000080: 4b51 aebf 24a9 83bf b0a6 86be 8d5b c93f
00000090: ee87 d4bf 2a3b 123d 6769 6b3f c625 a73f
000000a0: ea24 05bf c99e 81bf 0a4c 51bf 687d 0abf
000000b0: 3e5f 753f 3716 bbbf 505b 4dbf 70e1 633f
000000c0: 312e 8a3f 106a bbbe 764b fe3e 2be6 d13d
000000d0: 0ea3 74be 3115 00c0 7845 19c0 ee30 14bf
000000e0: 8c2e cf3e 6c72 4d3e f749 1a3e e0e5 ebbf
000000f0: dd47 de3e daf6 d8bf 322b cc3d 16d4 273e
1.9094489 0.4694678 0.67814136 1.1668733 0.32326695 -0.28746638 0.46329966 -0.53258187
0.28020385 -1.7739519 -0.36815676 0.9777985 0.09449914 0.39839906 -0.38023844 -0.6138647
-0.90759134 1.0785394 0.4232697 1.640176 0.691855 -0.6519746 0.47037265 -0.021233726
-0.8354306 -2.525729 2.0918114 0.14330035 0.2929601 -0.71624863 0.9341755 -1.0310618
-1.3618559 -1.0285993 -0.26299047 1.5731064 -1.6603982 0.035700954 0.91957706 1.3058403
-0.5200945 -1.0126582 -0.8175665 -0.54097605 0.95848453 -1.4616154 -0.80217457 0.89015865
1.0795346 -0.36604357 0.49666947 0.10248979 -0.23890325 -2.0012934 -2.394865 -0.5788716
0.404652 0.2006318 0.15067278 -1.8429527 0.43414202 -1.6950333 0.09969176 0.16389498

encoder.layers.0.self_attn.v f4 [4, 16]
00000000: b4f1 57be a5e6 c0be 4ba8 99be 906b 8b3f
00000010: 0721 f53e c3e6 563f 050f 473e aaf9 b7bf
00000020: d454 2abf 31bc af3f 08ae c03f 99fb 11bf
00000030: 6ebc 81bf cfc6 153e 31c2 443f 5d96 133e
00000040: 3628 373f 06eb 97bf c3f0 393e dabd 36bc
00000050: 85fd 22bc 5f3b b53f 359a 1ebf 86e1 22c0
00000060: d1ef d3be 38a0 d53e 930e 59bf 55df 013c
00000070: b73b 0bbf cbb4 963f 0927 963f 4be6 82be
00000080: f038 2f3f 6bc6 b2be 5061 adbf b516 313f
00000090: e0fd b9be ce7b 71bf 4453 0f3e 427c b73f
000000a0: 3828 8f3f 1cf1 b8bf 6239 03c0 b398 0ac0
000000b0: c993 e93e 8081 eabe d89f 90bf 6c99 f0be
000000c0: 3c12 133f 7848 783e 8626 a8be b4d6 52bf
000000d0: b7a6 2a3f 3885 803f d5ac ef3d d346 453e
000000e0: 3cf7 393f e14e da3f cb72 503f 5ee4 b53f
000000f0: 214b 1fbf 5d61 65bf 3c64 e8be e2ef b83f
-0.21088296 -0.37675968 -0.3001121 1.08922 0.4787676 0.83945864 0.19439323 -1.4373066
-0.6653569 1.3729306 1.505311 -0.5702453 -1.0135629 0.1462662 0.7685881 0.14412828
0.7154573 -1.1868598 0.1815825 -0.011153663 -0.009948139 1.4158744 -0.6195405 -2.5450149
-0.41393903 0.417238 -0.84787863 0.007926782 -0.5438799 1.1773924 1.1730663 -0.25566325
0.68446255 -0.34917006 -1.3545322 0.69175273 -0.36326504 -0.94329536 0.13996607 1.4334795
1.1184149 -1.4448581 -2.0503774 -2.16557 0.45620564 -0.45801926 -1.129878 -0.46992052
0.574497 0.24246395 -0.3284189 -0.8235886 0.66660637 1.0040655 0.11702887 0.19265299
0.72642875 1.7055322 0.8142516 1.4210317 -0.6222401 -0.8960169 -0.45388973 1.4448206

encoder.layers.0.self_attn.q_proj.weight f4 [64, 64]
00000000: e157 a03c 0fd3 ee3d f149 2abd 011c da3c
00000010: 02a2 84bd ff7b 443d da1a 2c3d d538 bf3d
00000020: 1e06 b63a 0e28 743d 7b57 9f3d 8411 ae3c
00000030: d61e efbd f69e ad3d cb38 a4bd 4ccd 553d
00000040: 9331 bdbd df2c 0b3d f71e b5bc 2d22 e0bd
00000050: 258a 683d cd48 03bd 4a76 51bd 7eb4 18bd
00000060: 58fc af3d f86e 983d fe21 ee3c f5bb 533d
00000070: 2606 773d 8992 563d da31 ce3d 697b 9d3d
00000080: 9091 87bd d54a 94bc a374 623d e8db c93d
00000090: 9aeb cebd f226 81bd af19 71bd 277a eb3d
000000a0: 16fa f53d 1bce 54bd 4562 1fbd d71d 1a3a
000000b0: 2b78 0c3c c6b6 13bd 26d7 b4bd f1d1 83bd
000000c0: c2bc 95bb b86d 273c 2249 bb3b f93f ddbd
000000d0: d1f3 d93d ce81 90bd 507c 03bd 970f e63d
000000e0: e2fa 073a 98c1 cfbd 56d0 8b3d 19dd 3fbd
000000f0: 05b3 ee3d 6f1f 0ebd f143 c2bd 8b59 bcbd
00000100: 87e7 1d3c 8d38 38bc 2d62 b83d ab3e 5d3c
00000110: 8282 87bd 9843 de3b a31a cfbd ea12 283c
00000120: 9f03 c23c ea6e 00be 0b69 bebd 069b 91bd
00000130: 9045 13bd ec74 53bc 39b7 773d 7277 b6bd
00000140: 54bd 8e3d f459 bdbd 5c86 ce3d 85ee 9fbd
00000150: 8400 bbbd 84b4 be3d 558f ce3d e261 50bd
00000160: ce6c d13d 276c ea3b e0dd 113d 2a9e f6bb
00000170: 14fd f2bc 735e 52bd 8e35 d9bd 7e9b a73d
00000180: 66a2 973d 58b9 da3d 0769 e9bd 748c ee3d
00000190: 104b 983d b355 2e3d f32a 6abd 2793 a33d
000001a0: 76d8 b23d 4964 c93d 305e ddbd 2dad 8e3c
000001b0: cb57 593d 918c fabd 23b2 dc3d 5951 8d3d
000001c0: 379e d0bd 5865 cbbd 0c7d 81bb bf28 ce3d
000001d0: c9b7 363d f6ff 053c b60c 883a 21ea edbd
000001e0: a1f5 883d 7534 b43d e8e2 a3bd c0ea 64bc
000001f0: 1f22 043e 0d87 1cbd 2ff6 9bbd e4b3 873d
00000200: fc12 4c3d 662d ca3d 61f9 50bd eebb cd3c
00000210: 6e48 b83c 0e00 d73d 2cdd 9a3d 984f 023d
00000220: 55dd 4cbc 9ee5 81bc 3341 75bd 4e45 643d
00000230: 39da d23d 675b 90bd 56d6 b9bd 4469 ae3d
00000240: 9f3a 8e3c 41cd 6fbd f38c ad3d 9a4d c1bd
00000250: 05a6 79bd 7af2 30bd 9a1f 6abb d4eb 003d
00000260: f5f3 853d 1cfc 20bd 8c6f d2bb b14c 8abd
00000270: a0a8 9bbd 6239 083d 881b b43d 533a e83d
00000280: e834 d1bd dd7b 7d3d 338b 20bd 8780 94bb
00000290: 6699 ed3a c426 cf3d 219a d73d cdcd c3bd
000002a0: e137 bd3c 1046 a03d 7cd1 123d 713d a7bb
000002b0: c0dc 81bd bbc2 b3bd ec54 ebbd c70d 703b
000002c0: cd74 2fbd e8de c33c 0f87 40bd b26c d53d
000002d0: a569 b5bd afe2 f13d 4d84 67bd 1e41 523c
000002e0: 3101 25bd 6726 403d 2c16 be3d 3b3d e03d
000002f0: 44e4 babd 61fc 9e3d 708e 973d 753b d2bd
00000300: eb2e 3d3d 058f c13c d732 963d 1195 d13d
00000310: 6fdf 74bb d5f3 1bbd d488 56bd 9439 d03c
00000320: d869 6ebc 85a8 a6bd 6360 483c 8279 9b3d
00000330: 05ad 1cbb 0eed 943d 512a 5cbd 97c9 be3d
00000340: 5fda bd3c 13fc 03bd c6aa 813d ee8f 743d
00000350: aadf 68bd f407 f1bc 6845 613d a3c5 ccbd
00000360: da7d 583d 0f86 133d c6c4 abbd 27df 0bbc
00000370: e4f1 e03c 5d7b ae3d e73b b33d 2cce 91bd
00000380: d246 b0bd 0714 893d 7555 e83d c15b df3d
00000390: 9c48 553d e19c e43d e512 48bd c0fd fcbb
000003a0: d2a1 cbbd 91bb 8cbd b988 a5bd 229f dfbd
000003b0: a075 1f3d 8c86 093d fb32 623d c965 a93d
000003c0: 433d c1bd 2c75 31bd 3a58 d43d 18ee ddbd
000003d0: a258 a33d 5515 263d a8d5 d3bd a2eb 923c
000003e0: bab5 243b c2ab 833c 80b6 30bd 9f05 523d
000003f0: 696b b43d 5013 b03d ebf4 90bc 5ded d6bd
0.019573154 0.1166135 -0.041574422 0.026624681 -0.06476213 0.047969814 0.042017795 0.09337012
0.0013887321 0.05960851 0.077803575 0.021248586 -0.11675803 0.08477585 -0.08018645 0.05219774
-0.09237971 0.03397834 -0.022109492 -0.109440185 0.05677237 -0.03205185 -0.0511382 -0.037281506
0.085930526 0.074430406 0.029068943 0.05169292 0.060308598 0.05238584 0.10068102 0.07689554
-0.06619561 -0.018102089 0.055287015 0.09856397 -0.10103531 -0.06306256 -0.058862384 0.11497908
0.12010591 -0.05195437 -0.038912077 0.000587908 0.008573572 -0.03606298 -0.08830099 -0.064365275
-0.004569621 0.01021903 0.005715505 -0.108032174 0.106422074 -0.07056008 -0.032100976 0.11233442
0.0005187226 -0.10144347 0.06826846 -0.046841715 0.11655239 -0.034697946 -0.09485615 -0.091967665
0.00963772 -0.0112439515 0.090031005 0.013503711 -0.06616689 0.00678296 -0.101125024 0.010258416
0.023683367 -0.1254231 -0.09297379 -0.071096465 -0.03595501 -0.012906294 0.06047747 -0.08909501
0.06969705 -0.09245673 0.10084221 -0.07809166 -0.09130958 0.093117744 0.10085932 -0.0508746
0.10225831 0.007154006 0.035611987 -0.007526179 -0.029661693 -0.051359605 -0.10605918 0.08183955
0.07404022 0.10679883 -0.113969855 0.11647883 0.07436192 0.042562198 -0.057169866 0.079870515
0.08732693 0.09833581 -0.108089805 0.017416561 0.05306224 -0.12233842 0.107761644 0.069002815
-0.10186427 -0.09931439 -0.0039516743 0.100663655 0.044608865 0.008178702 0.0010379765 -0.11616922
0.06687475 0.08799068 -0.08002263 -0.013971984 0.12903641 -0.038214732 -0.07615315 0.06626108
0.049822792 0.0987194 -0.051019076 0.025114026 0.022495475 0.10498057 0.075617164 0.031814188
-0.012503942 -0.01585656 -0.059876632 0.055730157 0.10295529 -0.070486836 -0.090740845 0.085161716
0.017361937 -0.058545355 0.084741496 -0.094386294 -0.060949344 -0.043199994 -0.0035724402 0.031474903
0.06540672 -0.03930293 -0.006421989 -0.06752909 -0.07600522 0.03325785 0.08794314 0.113392495
-0.10215169 0.061885703 -0.03919525 -0.004531923 0.0018127381 0.10114816 0.10527445 -0.09560738
0.023097934 0.07825863 0.03584431 -0.00510376 -0.06340933 -0.08777376 -0.11490807 0.0036629306
-0.042836 0.02391 -0.047003802 0.104211226 -0.08858041 0.118108146 -0.056522656 0.012832908
-0.04028434 0.046911623 0.09281573 0.10949179 -0.091255695 0.07762981 0.07400215 -0.10265247
0.046187323 0.023627767 0.07333916 0.1023351 -0.0037364622 -0.038074333 -0.052376583 0.02541808
-0.014551602 -0.08137611 0.012230012 0.07591535 -0.0023906839 0.07271777 -0.053751294 0.09315794
0.023175417 -0.03222282 0.063314006 0.059707575 -0.056853928 -0.029422738 0.05499783 -0.09998634
0.052854396 0.03601652 -0.08387141 -0.00853709 0.027459092 0.085196234 0.0875166 -0.07119402
-0.08607258 0.06693273 0.11344425 0.109061725 0.0520712 0.11162735 -0.048846144 -0.007720679
-0.09942974 -0.06871713 -0.080827184 -0.10919024 0.038930535 0.03357558 0.0552244 0.08271367
-0.09435513 -0.043324634 0.103683904 -0.108364284 0.0797589 0.040547688 -0.10343486 0.017934624
0.0025132732 0.016073111 -0.043142796 0.051274892 0.08809549 0.085974336 -0.017694911 -0.10494492

encoder.layers.0.self_attn.q_proj.bias f4 [64]
00000000: c37d 16bd dc21 d13d b764 56bc f447 153c
00000010: 0fb5 fabd 2aa6 c4bd 0783 a03d e0d2 44bd
00000020: 122c 623d 88b7 b4bd a260 83bd 3d66 913d
00000030: affd c83d 50ed 9c3c d9d7 febd fe0c 8cbd
00000040: 0291 48bd ab9f 763d f402 d2bd 140f 96bd
00000050: d3de febd cf55 b8bd 910d ca3d 2801 4fbd
00000060: 8c13 01bd 0b2b c83b 674d e3bc 1f65 28bd
00000070: 162b 213a 2f78 7fbd a5d4 a23d 4da5 bcbb
00000080: 4754 523d a215 903c 24ae be3d d8a5 793d
00000090: f892 89bd db98 d2bc d04c f13c 7502 50bd
000000a0: de4f b6bd c519 df3d 1547 b33d a683 6dbd
000000b0: c08a e53c 65d9 c13d 7551 94bd 52e8 7dbc
000000c0: ace8 debd 65a5 f7bd 6b68 d53d c021 293d
000000d0: 455a 9dbd 0151 37bc 3414 65bd a4c6 8cbc
000000e0: 7984 f3bc d9f3 0e3d 62fb 833c 6394 bbbd
000000f0: b195 883d 015c 003c d5f7 85bd 97c9 a0bd
-0.03674103 0.10211536 -0.013085536 0.009111393 -0.122415654 -0.09602006 0.078374915 -0.04805267
0.05521781 -0.08824068 -0.064149156 0.070995785 0.09814011 0.019156128 -0.124435134 -0.068384156
-0.048966415 0.060210865 -0.102544695 -0.07327095 -0.12444844 -0.09000742 0.09865869 -0.050538212
-0.031512782 0.0061086467 -0.02774687 -0.04111206 0.0006148083 -0.062370475 0.07950715 -0.00575701
0.051349904 0.01758844 0.093105584 0.060949177 -0.06717485 -0.025707653 0.029455572 -0.050783593
-0.08901952 0.10893587 0.08753792 -0.057986878 0.028020263 0.09465293 -0.07242099 -0.015497284
-0.108842224 -0.120920934 0.10420307 0.041291952 -0.07683233 -0.011188746 -0.05592747 -0.017184563
-0.029726254 0.03490052 0.01611108 -0.09159162 0.06669176 0.007834435 -0.06541411 -0.0785095

encoder.layers.0.self_attn.k_proj.weight f4 [64, 64]
00000000: 9fb6 40bb 312d 323d 9f1b edbd 6109 b7bc
00000010: 3511 afbd 8b89 edbd 7c7a 8a3d 9058 51bd
00000020: 3aca 05be ae2d 06bd 42da 82bd d0af 913d
00000030: de3b a1bc e29c 8fbd e2bb 45bd e811 e4bc
00000040: 00b8 d03d 570a 443a 5dab d4bd 26b4 06bd
00000050: 325f f53d 970b d7bd 2545 2dbd 9ac8 d43d
00000060: d219 48bd 5d1d bb3d 3320 b5bd dc64 b13d
00000070: a498 bd3d f635 acbc 9643 f9bd ea94 1ebd
00000080: 0bc8 ef3c 75fe 57bd adbd dbbd d5b6 eabd
00000090: cac8 7a3d 35f7 a93d 7a3f 37bd 07b3 d43b
000000a0: 6fd3 8cbd 3f21 933d 62f5 a8bd 54c0 88bd
000000b0: f31e 71bd 6041 02bd 030d b73c c190 02be
000000c0: 6739 50bd 53e0 70bd 2969 05bd 7a1e 903b
000000d0: 656c 4d3b 5044 7d3d 3dc8 a2bd 6f97 d1ba
000000e0: c42c d83d e474 d73c a42f b8bd 5841 aa3d
000000f0: 3630 dbbd 6cf1 4f3d bfd5 bc3d 23a4 733c
00000100: 43e7 873d b725 cb3d f977 673d 2add fabc
00000110: 7037 023d 34fc d03d dcd4 f53c 0fe5 dbbd
00000120: 5fa4 c63d ba5d fe3d 9f3d 9f3d fa2f 923d
00000130: 0409 8f3d 5430 8fbd 42ce 0dbd 403e 5b3d
00000140: 9d80 1d3d e27d 2c3d b6ce f0bb 2c3b f7bd
00000150: d8f3 823d af91 9cbd 2bd5 c9bd e537 f23d
00000160: 408f 653d cd03 6e3d 6de4 7bbd 7ae8 1b3d
00000170: 4123 ab3c fb64 b33d 78c8 0d3c f30f ec3d
00000180: 782e 01bd 91d0 d53d da94 ed3d bd88 2a3c
00000190: 6a20 b7bd 8de1 ecbb 0d44 d13d 81ae aabd
000001a0: da39 16bd e758 373d 8b20 cd3c a8d2 f83d
000001b0: 0178 4d3c e5b9 22bc 51b5 c13c 06c3 11bd
000001c0: faf5 f5bd 9d03 47bd 94a7 f6bd d044 d33d
000001d0: cf72 a23b bad1 4e3c 5357 8cbc c20c 8cbd
000001e0: a9c2 c4bd 8a0a 0ebc 72bf 253d f0fc 8fbd
000001f0: 031b 96bd 6569 a53d da26 60bd 8337 8e3d
00000200: 847f f43d 5e9e f03d 1072 c6bd 8a6c 7f3c
00000210: 0f7b bebd 7287 be3b e5ea 933c 1bb0 7ebd
00000220: a569 d13c 84eb 13bd b073 9a3d 24d3 9a3b
00000230: 4c90 b13d f1fc b73d 0b9a f93c 856d bd3c
00000240: 5796 4dbd 8a67 bebd ad2f a23d 42b7 a73d
00000250: 896a c73c 0ae3 d93d b8c8 8e3d c719 9d3d
00000260: d26b b5bc 41c0 663c eb8f f3bd 9a6b f9bd
00000270: 0fe6 8d3d 2f5e 95bd 58b8 b63d 3cbc c6bd
00000280: 8310 d7bd ff05 e8bd 47ae 943d 1a46 b2bd
00000290: 36d4 d7bd 5282 3b3d e71c babc 8d74 efbd
000002a0: 2ccf c43d 2313 b93d 4e41 cc3d 47fd a73d
000002b0: 6dfd d5bd 7367 82bd f738 2dbd cd3c 06be
000002c0: 7828 a83d 3601 62bd e28d 123d 8c78 55bd
000002d0: 9eba df3d 885e b03d 6e79 9f3d a87e 683d
000002e0: 3fb5 c53d d4dc 503d 892a c63c 8b8a f9bc
000002f0: 46ac d63d 33ad f6bd 76cd 9f3d 5ef2 4fbc
00000300: 94c7 0abc 609e a7bd b4c5 60bd baa1 f63c
00000310: 7497 3bbd 7b25 393d a285 963c 9693 eabd
00000320: dae5 673d cdb2 53bd 8c1e 24bd 8960 2dbd
00000330: fd49 493d 4be0 f0bd 03bc b2bd 2409 4d3d
00000340: 0c48 01bd 80d0 0cbd e2e7 efbd 3ce1 483c
00000350: 9ab9 813d bb33 31bd 2b35 683c 40d1 baba
00000360: 5bc9 cbbc 034a c63d 744d d03c 2315 823c
00000370: d605 ca3b 394f efb8 c5ba 7a3d d4d7 303c
00000380: 06f5 d63c 6b56 b93d 404f a53d 6f66 4cbd
00000390: e9e3 cdbd cb98 d23c e973 a9bd deda fabd
000003a0: 2470 bf3d 9690 d4bd 29cd fb3d e25d e3bd
000003b0: 07ba e0bd 5b0e 813d 2c33 873c 882b 83bd
000003c0: e4f7 2c3d df7f afbd 31dd 9bbd dff3 debd
000003d0: beb8 88bd 61d2 dfbd 4b0f ca3d c294 70bd
000003e0: b294 583c fbfa 3bbd cf9d d2bc 35b8 b53d
000003f0: 01a3 ef3c 8583 773d 0f16 f23c 5b1a d2bd
-0.0029405726 0.04350013 -0.11577534 -0.02234334 -0.08548204 -0.115985 0.06761643 -0.05110985
-0.13065425 -0.032758407 -0.063892856 0.07113612 -0.019681867 -0.07012345 -0.048274882 -0.02784057
0.10191345 0.00074783474 -0.103842475 -0.032886647 0.11981048 -0.105002575 -0.04230227 0.10389824
-0.04885275 0.0913646 -0.08844032 0.086618155 0.092576295 -0.021021824 -0.12171094 -0.038716234
0.029270193 -0.052732904 -0.10729537 -0.11460654 0.061226644 0.08299104 -0.04473827 0.0064910683
-0.06876265 0.071840756 -0.08249928 -0.06677309 -0.058867406 -0.031800628 0.022345072 -0.12750532
-0.050835993 -0.058807682 -0.03257099 0.0043981643 0.0031345126 0.061832726 -0.07948349 -0.0015990565
0.10555413 0.026300855 -0.08993462 0.083132446 -0.10702555 0.050767347 0.09220456 0.014870676
0.066359065 0.09919303 0.0565109 -0.030623037 0.03179115 0.10204354 0.030008726 -0.10737049
0.0969932 0.12420221 0.07775425 0.07138057 0.069841415 -0.0699164 -0.03462053 0.053526163
0.038452733 0.04211224 -0.0073488606 -0.12071833 0.06394166 -0.076449744 -0.09855112 0.11827067
0.056044817 0.058109093 -0.06149714 0.038063504 0.020890834 0.08759495 0.0086537525 0.115264796
-0.031538457 0.104401715 0.11600657 0.0104085775 -0.08941729 -0.007229036 0.10218058 -0.08334065
-0.036676265 0.04476252 0.025039932 0.121495545 0.012540818 -0.009932016 0.023646029 -0.03558638
-0.12009807 -0.04858743 -0.12043682 0.10315859 0.004957534 0.012623245 -0.017131483 -0.06838371
-0.09607441 -0.008669505 0.04046578 -0.07030666 -0.07329371 0.08076743 -0.05472455 0.06944182
0.11938384 0.11748956 -0.096897244 0.015589843 -0.09300815 0.005814486 0.018056342 -0.062179666
0.02556307 -0.036113277 0.07541597 0.004724877 0.086701006 0.089837916 0.030468961 0.023123512
-0.050192203 -0.09297092 0.0791925 0.081892505 0.024342792 0.106390074 0.06971878 0.07670932
-0.02214614 0.014083923 -0.118926845 -0.121787265 0.06928646 -0.07293355 0.089218795 -0.097038716
-0.10501196 -0.11329269 0.07259803 -0.08704777 -0.10538523 0.04577858 -0.02271886 -0.11692152
0.096098274 0.09036853 0.099733934 0.08202606 -0.10448728 -0.063673876 -0.042290654 -0.13109131
0.08210844 -0.055176936 0.03577984 -0.052116916 0.10924266 0.086117804 0.07786833 0.056761414
0.096537106 0.050991848 0.024190204 -0.03046157 0.10482077 -0.12044754 0.078028604 -0.012692062
-0.008470435 -0.081845045 -0.054876044 0.030106414 -0.045798734 0.04520176 0.018374268 -0.11453931
0.056615688 -0.05168419 -0.040068194 -0.04232839 0.049142826 -0.117615305 -0.08727267 0.050057545
-0.03156285 -0.03437853 -0.1171415 0.012260731 0.06334229 -0.043262225 0.0141728325 -0.0014253035
-0.024876287 0.09682085 0.025427558 0.01587922 0.0061652465 -0.000114111645 0.061213274 0.010793645
0.026239883 0.09049686 0.08071756 -0.049902376 -0.10053236 0.025707623 -0.08274061 -0.12248777
0.09347561 -0.1037914 0.122949906 -0.11101891 -0.10972982 0.06301566 0.016503893 -0.06404787
0.042228594 -0.08569311 -0.07610548 -0.108863585 -0.06675862 -0.109287985 0.09866198 -0.058735617
0.0132190455 -0.04589365 -0.025710015 0.08873025 0.029252531 0.06042816 0.029551534 -0.10258933

encoder.layers.0.self_attn.k_proj.bias f4 [64]
00000000: 842f 543d 478e 6a3d d25c c2bd 5880 c0bd
00000010: 7c7b 253d 8d1e 6f3d 07dc bebd 8c0e d93d
00000020: 03d6 72bc 5ce6 b2bd 8444 9fbd f790 84bc
00000030: c823 553d 2e13 94bd bd10 a03d 6305 e33d
00000040: 16e4 d33d df2f 313d 0cab 19bd d06e 0bbd
00000050: 5849 9b3d 33ec 5cbc f9d2 ed3b 2e13 e33d
00000060: d4ac e1bd 690d 81bc e50d 13bd 7e77 06bc
00000070: c9ae c8b6 7cab 6bbc 76b9 db3d f32d 183d
00000080: e075 84bd 1846 db3d 7ee1 b0bc aadd ce3b
00000090: 5c35 e13a 359d 9fbd 3746 4c3d 515f 7ebd
000000a0: 6f5a c7bd 7237 ba3d 91ed 793d 65bc 1ebd
000000b0: e7b6 9abd 4e73 ca3d ed49 fc3c 0d7c 8dbd
000000c0: 9f0d b8bd 284c 1cbd 5e14 64bd 399a e539
000000d0: ba15 f83a 54b6 ddbd 76b8 483d 409d 4c3d
000000e0: d23f cbbd ca31 b13d 8a7d 14bd 3e49 4f3d
000000f0: 1a4b de3d 29a6 763d 5c6f 8f3d 2540 7136
0.051803127 0.057264592 -0.0949036 -0.0939948 0.040400967 0.058378745 -0.09319311 0.10598478
-0.014821532 -0.08735344 -0.0777674 -0.016182406 0.052036077 -0.07230221 0.078156926 0.11085012
0.10346238 0.043258544 -0.03751664 -0.034041226 0.075823486 -0.013484049 0.007257816 0.110876426
-0.110192925 -0.015753465 -0.035901923 -0.0082072 -5.980812e-06 -0.014384147 0.10728733 0.037153196
-0.06467795 0.10706729 -0.021591898 0.0063130455 0.001718204 -0.07793657 0.04987165 -0.06210262
-0.09734046 0.090926066 0.061017577 -0.038753886 -0.07554417 0.09885274 0.03079697 -0.069084264
-0.08986973 -0.038158566 -0.055683486 0.00043793189 0.0018927373 -0.10825792 0.04900404 0.049954653
-0.09924282 0.08652075 -0.036252536 0.05060696 0.10854168 0.060217056 0.07003662 3.5949136e-06

encoder.layers.0.self_attn.v_proj.weight f4 [64, 64]
00000000: 2fdc af3c eeaa d2bd e402 c0bd 14eb d83d
00000010: 3f8d f6bd 2df0 5a3d 9f3b abbd adee e73d
00000020: e427 bb3d be45 cdbc ae2d 43bc e55b adbd
00000030: 67b3 ee3d 7687 9ebd edcd 4c3d c2c6 bd3d
00000040: 79c7 ffbd 5eb3 e6bd 36a0 acbd 416d dbbc
00000050: 9099 973d 87a7 20bd d5f8 73bd ddc1 b43d
00000060: da11 dd3d a45b 8e3d 7e0a ee3d afb9 d8bd
00000070: 69a1 f0bd 6873 913c e6ce d9bd 41b6 1ebd
00000080: 5636 9c3d afec 043e 334c d9bc e32d dbbd
00000090: 76b5 80bd 929e 023e 2dbd e3bc c504 f8bd
000000a0: 4f51 95bd c5cf a3bd 7e81 1ebd 699c bdbd
000000b0: c3cb 35bd fbaa ef3d 8dce 83bd 32b2 b6bc
000000c0: f34e 8b3d dd62 e3bd adb0 5abd 7c5d a8bc
000000d0: c350 c73d 87b2 883c 4541 203c 3d68 06bd
000000e0: 6408 523d d884 57bd ae04 e9bc ff3f 50bd
000000f0: d336 523d e54e 033e 117a b4bd 4454 7bbb
00000100: a0bd d2bb 44c0 78bd f69b bcbd b0d4 45bd
00000110: db3f d1bd ce4f c03d 5dff c7bd 7ae7 a33d
00000120: cb63 d43d 582a b1bc b0e5 f43d f011 b93d
00000130: 6bb5 adbd f586 913d 6a52 133d b36c d13d
00000140: bf26 c7bd 833d da3d dd1a 923c 4e21 603d
00000150: e7da 91bd 9249 a43d 7992 81bc fd00 d93d
00000160: baca 693c 18fa a23d 0ed9 95bd af71 dabd
00000170: 646c 1f3d 3dc0 7e3d 364b 0b3d 3f70 103d
00000180: 1e03 a83d f6d6 6dbd 0ec9 863d ec32 773d
00000190: c48b 5bbd 78d2 8abd 7939 01be 834a b73d
000001a0: 8e38 90bb ce5e d43c e0ab bebd 9149 c0bd
000001b0: f9e7 d23d 0d07 b53d 62a5 833d 102c ce3d
000001c0: 98c6 cc3d 9e10 9c3d de44 cf3d 9426 c6bc
000001d0: bb28 073d b549 debd 5d14 17bd 7a39 7ebb
000001e0: addc 2cbc f2b6 fd3d ac21 c43d 2397 2e3d
000001f0: b153 f93d 34b7 7dbd d935 f13c dcdd c3bd
00000200: f1bc dbbd 7909 8b3d 542f 0d3d e019 a0b9
00000210: 1741 b6bd 0cb1 bc3d 21ac 91bc b42c b43d
00000220: 283a b3bd d14b d43d f5bc 583a ddc6 24bd
00000230: b794 edbb fc19 c4bd 5a0e b2bc 9f3a ee3b
00000240: 3b0a bebd d604 9f3d 7833 f53d 1333 6e3d
00000250: 6eca 7fbd 0780 9fbd 9da8 d9bd 3708 97bd
00000260: 53c8 a73d ca67 733d b129 26bd a8af ca3b
00000270: 9f85 b8bc 2538 803a 40ad 01be f82a d93d
00000280: 8697 3ebd a259 cebd 19e5 f9ba ab31 133d
00000290: 25b0 783d b500 6cbd 4fa3 1cbc 3589 c0bd
000002a0: 5564 c1bd 0584 aabd 0847 a6bd 98ed 9c3d
000002b0: cf39 e7bd d67b ddbc db9b 4abd 0860 a83d
000002c0: 41f1 8fbb da85 90bd 698a e43d 70b6 cebd
000002d0: c9c2 36bd 9ff9 e3bd f662 acbb bd3e 273d
000002e0: fd5e d83d 0d16 b4bd 1f62 bbbd 403b 023e
000002f0: 0593 a73c 6688 afbd a2c8 573d ac7d f93d
00000300: fe4c c13a 50a2 76bd 8f24 84bd 1766 4bbd
00000310: cd2a 8e3d 004b b2bd d0b9 fb3d 4055 a9bd
00000320: 0d75 103d 0c5d f93d a2c3 6ebd 5bd3 b0bd
00000330: c408 82bd adcd 49bd c2dc a5bd 950a 02be
00000340: f5d0 75bd b341 57bd 0386 d23d 3046 70bc
00000350: 8705 913c 7c1d 1bbd f416 d93c 9e71 633d
00000360: d1ac 5f3c ffb3 95bc 7b7d 3a3b d092 e33d
00000370: 4666 9fbd ba42 ff3d c67c ddbc 684f bd3d
00000380: e7e1 c53d 6bb5 66bb e104 a13b c048 aa3d
00000390: 44e5 79bc 2b28 f33c 840a 003e 5106 a3bc
000003a0: 47dc 17bd dbbd c83d e07c f13d 9a44 f83d
000003b0: 181f ebbd 71c1 a33d ca60 873d b6fd adbd
000003c0: 058f a93d d7b3 93bd e768 5f3d 692c 9d3c
000003d0: 0c69 273d c692 9ebd 5342 07bd aba1 9abd
000003e0: 1bf5 953d 0799 ccbd 0d75 883c 1234 433d
000003f0: f264 e8bb 7399 26bd cc00 c53c 0a96 c43b
0.021467296 -0.102865085 -0.09375551 0.105917126 -0.12038659 0.053451706 -0.08360981 0.11324821
0.09138468 -0.02505767 -0.011912746 -0.08464793 0.11655312 -0.07740681 0.050001074 0.09266426
-0.12489218 -0.1126468 -0.08428995 -0.026785495 0.074023366 -0.039222267 -0.059563477 0.08826039
0.107944205 0.06951073 0.11623095 -0.10582291 -0.117495365 0.017755225 -0.10635166 -0.03874803
0.07627551 0.12980913 -0.026525592 -0.107021116 -0.06284611 0.12755802 -0.027800167 -0.12110285
-0.07290899 -0.07998613 -0.038697712 -0.092583485 -0.044383775 0.11702534 -0.06435881 -0.022301767
0.06802168 -0.11102841 -0.053391147 -0.02055239 0.09732201 0.016686691 0.0097811865 -0.032814253
0.051277533 -0.052616924 -0.028444614 -0.05084228 0.051321816 0.12823065 -0.08812345 -0.0038349787
-0.0064312965 -0.060730234 -0.09209435 -0.048298538 -0.102172576 0.093902215 -0.097655036 0.08003135
0.103705965 -0.021626636 0.11957872 0.090366244 -0.08481868 0.07105819 0.035967268 0.10225811
-0.09724187 0.10656264 0.017835075 0.05471926 -0.071218304 0.08021845 -0.015816914 0.105958916
0.014269525 0.07957858 -0.073167905 -0.10666215 0.03892173 0.06219505 0.034007274 0.035263296
0.082037196 -0.05806633 0.06581317 0.060351297 -0.053600088 -0.06778425 -0.1261958 0.08949759
-0.004401273 0.025924113 -0.09310126 -0.09389032 0.102981515 0.088392355 0.06428029 0.10066998
0.09998816 0.07620357 0.10120557 -0.024188317 0.032997828 -0.10853902 -0.036884654 -0.0038791583
-0.01055066 0.1238841 0.09576735 0.042624604 0.12174166 -0.061942294 0.029444622 -0.09563801
-0.10729397 0.06788916 0.034468964 -0.00030536857 -0.08899134 0.092134565 -0.017782273 0.08797589
-0.08751327 0.10366023 0.0008267903 -0.040228713 -0.007250394 -0.095752686 -0.021735359 0.007270172
-0.09279295 0.07764594 0.119727075 0.058154177 -0.06244891 -0.07788091 -0.106278636 -0.07374614
0.08192506 0.059425153 -0.040567104 0.0061854906 -0.022524653 0.0009782357 -0.12663746 0.10603899
-0.046531223 -0.1007569 -0.0019065469 0.03593604 0.06071486 -0.05761786 -0.00956042 -0.0940117
-0.09442965 -0.08325962 -0.08119017 0.07662505 -0.11290323 -0.027036589 -0.04946504 0.082214415
-0.0043927734 -0.0705678 0.11159212 -0.10093391 -0.044619355 -0.11131596 -0.0052608205 0.040831316
0.105649926 -0.08793268 -0.091495745 0.12717915 0.020455847 -0.08570938 0.052681573 0.12182173
0.0014747677 -0.060213387 -0.064522855 -0.049657907 0.06941757 -0.08705711 0.122913 -0.08268213
0.03526788 0.121759504 -0.05829204 -0.08634063 -0.06349328 -0.049268413 -0.08098747 -0.12699349
-0.06001373 -0.05255289 0.10279467 -0.0146651715 0.017702831 -0.037869915 0.026500203 0.055528276
0.0136520425 -0.018274305 0.002845614 0.11111987 -0.07783179 0.12463899 -0.027037036 0.09243661
0.09662228 -0.0035203348 0.0049139117 0.08314657 -0.015252415 0.02968224 0.12504011 -0.019900473
-0.037075307 0.09801837 0.11791396 0.1212246 -0.1148054 0.079958804 0.06610258 -0.08495657
0.08279232 -0.07212036 0.054543402 0.019186215 0.040871665 -0.077428386 -0.033022236 -0.07550367
0.07322141 -0.09990125 0.016657377 0.04765708 -0.0070921117 -0.040673684 0.024048232 0.0059993314

encoder.layers.0.self_attn.v_proj.bias f4 [64]
00000000: 1b5a 543d 4503 cfbd 5e74 3a3d 5c7f a8bd
00000010: 36b2 cdbd c933 2f3c aa4f e23d 9f3a 4f3c
00000020: 4ef4 443d 38c0 80bc aa4a 7f3b fe31 883c
00000030: 5fea 6fbd fe99 c73d af10 a3bd adb0 783d
00000040: 0bfb aa3d 12b7 86bd f70c e73d 1153 4d3d
00000050: 1981 d83d c3c9 403d 3f0e 8dbd 4994 a33d
00000060: f2df cb3d d245 913d 26fc 293d 5383 bb3c
00000070: 7bd0 1c3c 3c6e f53d ed19 7cbd 1c79 b83c
00000080: 17b4 f2bb 458b e73d 2a84 913d deee a9bd
00000090: f9de 5e3d 7e23 1bbd 1d46 b93d 6579 e2bd
000000a0: 5912 eabd a475 613d 92e7 1dbd ab82 043d
000000b0: 1bc3 c93d 5cd9 a7bd a156 91bc f0bd 3abd
000000c0: 632f 8a3d 3a1d 3abd bb73 d63d fc0b c538
000000d0: 5b22 073d 5e4a 7abd 8998 04bc 448a d8bd
000000e0: 5741 71bd 9758 02bd ccc1 d0bd a2a0 243a
000000f0: 941b 7f3d 170a 89bd 7961 2bbc c9b3 bd3d
0.051843744 -0.101080455 0.045521133 -0.08227417 -0.10043757 0.010693499 0.11050351 0.012648254
0.04808455 -0.015716657 0.0038954415 0.0166254 -0.058573123 0.097461686 -0.079621665 0.060715366
0.08348664 -0.06577887 0.1128177 0.050128046 0.105714984 0.047067415 -0.06887483 0.079872675
0.099548236 0.07093395 0.041500233 0.022889769 0.00957119 0.11983916 -0.061548162 0.022518687
-0.0074067223 0.113058604 0.071052864 -0.082975134 0.054411862 -0.037875645 0.09046576 -0.110583104
-0.11429281 0.05504383 -0.03855092 0.032351177 0.098516665 -0.08195755 -0.017741503 -0.045591295
0.067473195 -0.04543803 0.104712926 9.395924e-05 0.03299175 -0.06110608 -0.008093008 -0.10573247
-0.058900204 -0.031822767 -0.10193214 0.00062800397 0.06228216 -0.066913776 -0.010460251 0.09262807

encoder.layers.0.self_attn.out_proj.weight f4 [64, 64]
00000000: ac43 aabd cd41 e23c f694 02bd 39e9 dd3d
00000010: e203 60bc eeea e83d d70f 20bd 7edb c5bd
00000020: 7b27 253c bd46 9abd 8788 83bd 246a aa3d
00000030: 0c5f 003e a215 97bd be16 03be 3cc7 373d
00000040: 003a debd 3dc4 1fbd c540 4e3d d43f 303d
00000050: e96a d83c d4ca 653d 6925 8ebd 0000 25bd
00000060: 3c31 1cbd 0237 fabd d1ce 9bbd 189e 8e3c
00000070: 31e7 153d 125e 5dbd 4724 af3d 54c3 81bd
00000080: 7892 eb3b ad03 e33d 4ad9 a63d 2e1b eb3d
00000090: 4f65 253d f8d2 b5bd 83e0 3cbd 9231 1bbd
000000a0: f13e bcbd eda1 42bd 8f7d f3bd ac9b 60bd
000000b0: af02 f5bd 1971 f53d 653a bd3c f523 e93d
000000c0: bbb7 863d bf88 003e cc19 19bd bcba 81bd
000000d0: 12cc 3fbd 59ac f0bd 48c5 dabb 8229 7f3c
000000e0: c53b 933d b0c8 b5bc a141 1d3d edc7 6a3d
000000f0: 6ad0 f23c f55d 053d 7675 42bd 0073 883d
00000100: ff63 01be 656d 463c ae39 713d 3597 a83d
00000110: 8cf1 633d d5be 4fbc 5c74 b83d e7b9 ecbd
00000120: 81ff a9bc 089d 43bd 0225 a33d 1ff5 d53d
00000130: fbea ddbc 81a0 e33c 53fc a6bc ff56 0ebd
00000140: 4dfc 303d a1f6 e03c 4dab 7abd 2767 fd3c
00000150: 733d e93d a4cf bbbd 146c 8abc 5118 dcbd
00000160: 0fe6 f3bc 0be7 ed3d 1171 9a3d 2af6 ebbd
00000170: 49a5 dcbd 340e cc3b cdae 7abc fd0d be3d
00000180: bc6b 17bd 742d b93d 9364 90bd d698 8dbc
00000190: 4b8e 0bbb b3ce 82bd 02aa 923a e79c b8bc
000001a0: 5a8a 5dbd 288f d5bd 6166 4c3b 2f1b e73d
000001b0: aa7f 393d 13a8 b7bd 0a01 80bd 5fb4 aa3d
000001c0: fc9d 5fbd 8f82 0dbc efdf 81bd 439a 563d
000001d0: 10f7 a3bd 9ae6 f3bd 4c3c b3bd cc4a d6bd
000001e0: b0fc a03c 794f ad3c 35de 0fbd 6b2a 503d
000001f0: 3485 003c c197 123d ed54 8a3d 616e e23c
00000200: 3bb0 073e f2d0 cb3d e46f 81bd 9376 b53d
00000210: ddeb 6fbc 1984 77bc 3f81 0b3c 12dc e0bd
00000220: 41a6 9a3d 2937 a53d 3400 f03d 4137 db3c
00000230: b3f2 25bd 6c59 c6bc 8bd2 1abd 4290 f1bd
00000240: 67c9 423d 23a7 903c 2257 0ebd 67b9 91bd
00000250: f05f 0ebd 43bc 133d 9773 b73d 278f 5c3d
00000260: 974e bb3d 40d9 d13d 169a 5abd 3d10 e4bb
00000270: 37bb e3bd 3871 93bd 8e12 473d 2f03 283d
00000280: 58bd 653d 47fd dc3d 051e 503d 93b0 7dbd
00000290: 3bfd fdbc 95f5 333c 6a64 8c3d 31b5 85bd
000002a0: 6155 63bd 9efa 553d 3e8b 313d 1b97 ef3d
000002b0: 34d0 cd3d 5893 70bd 09c6 253d 98d1 96bd
000002c0: 5cec d83a b6e0 2cbc 027f 073d 7a16 e83d
000002d0: 02b1 cdbd 38a1 e83d 4d9a a83d 5a5e 75bd
000002e0: aca5 20bd a73d 02bd 9c20 9e3d d10a 13bd
000002f0: 7949 323d 5598 58bd da5f cb3d ec8b 97bc
00000300: 3fda e63d 4aa3 c6bd 32b9 2dbd f2ad ae3d
00000310: 6d3d 333d 6dff 66bd b6ee cbbd 526d bfbd
00000320: 8948 ccbd 17e7 8bbd fd39 95bd eb68 1fbd
00000330: 1d6a e83d c58e e2bc 46f8 a3bd 60ac 863d
00000340: 72cc 9fbd 4cb8 78bd b1c9 c6bc 74dd 91bc
00000350: 96ee 91bd 1b58 d2bd f7f9 f2bd 825f 65bd
00000360: 26b0 873d 488c c63b 40a6 bf3d ba01 c83c
00000370: 7895 b6bd 587a 543c 5196 09bd 2eb4 983d
00000380: e061 003d 8a16 f73d c196 e3bd 1436 70bd
00000390: 31bb d2bd 3547 1f3c 1e0b abbd e181 4abd
000003a0: cced fb3d a33c 3ebd a93f 763d a26b a23d
000003b0: d29d bb3d 4c3f d63d f701 a53d 5f2a 573c
000003c0: c4b2 c73d 9f8d f63d eb1a babd c4ea c53c
000003d0: 76b6 b23d d5e9 a8bd 81e2 573d 0f18 a13d
000003e0: 997c 0f3c cfa6 03bd 3d35 05bc e376 e43d
000003f0: c5bd cbbd 21bc 593d 2d73 86bd 3a2a aa3d
-0.08313689 0.027619267 -0.03188034 0.10835499 -0.013672801 0.11372934 -0.039077606 -0.096610054
0.010080214 -0.075330235 -0.06422525 0.08321026 0.12536258 -0.07377173 -0.12801644 0.04486774
-0.10850906 -0.039005507 0.050354738 0.04302962 0.026418166 0.056101635 -0.06940729 -0.040283203
-0.03813289 -0.12217523 -0.076078065 0.01740937 0.036597434 -0.05404479 0.08551841 -0.06336084
0.0071890913 0.110846855 0.08146913 0.114797935 0.04037982 -0.0887813 -0.04611255 -0.03788907
-0.091916926 -0.047517706 -0.11889183 -0.05483596 -0.119634025 0.11984462 0.023099134 0.113838114
0.065780126 0.12552164 -0.037378117 -0.06334445 -0.046825476 -0.11751623 -0.00667635 0.015573861
0.071891345 -0.022190422 0.038392667 0.05731957 0.029640395 0.032560308 -0.0474753 0.066625595
-0.12635802 0.012111043 0.0588929 0.082319655 0.05565028 -0.012679775 0.09006569 -0.115588956
-0.020751717 -0.04775718 0.07966043 0.10447144 -0.027089586 0.027786495 -0.02038399 -0.034750935
0.043209363 0.027461352 -0.06119852 0.030932976 0.11388674 -0.09170464 -0.016897239 -0.107468255
-0.029772786 0.116163336 0.07541097 -0.115215614 -0.10773713 0.006227279 -0.015300465 0.09280012
-0.036967978 0.090418726 -0.07050433 -0.017284792 -0.002129453 -0.06387081 0.0011189582 -0.022535754
-0.05408702 -0.104276955 0.0031188952 0.11284482 0.045287766 -0.089676045 -0.06250198 0.08335184
-0.054594025 -0.008637085 -0.0634154 0.05239321 -0.08006108 -0.11909218 -0.08751735 -0.10463485
0.01965174 0.02115606 -0.035124023 0.050821703 0.007844258 0.035789255 0.067544796 0.027640523
0.1325082 0.099519625 -0.063201696 0.08860507 -0.0146436365 -0.015107178 0.008514701 -0.10979475
0.07551242 0.080671616 0.11718789 0.026759746 -0.04051466 -0.024212562 -0.037798446 -0.11795093
0.047555353 0.017657822 -0.034751065 -0.07115441 -0.034759462 0.036068212 0.08957594 0.05384746
0.09145849 0.10246515 -0.053369604 -0.0069599436 -0.11119693 -0.07199329 0.04860168 0.04101866
0.056088775 0.10790496 0.05080988 -0.061935972 -0.031004539 0.010983844 0.0685509 -0.065287
-0.055501346 0.05224096 0.043345682 0.11698743 0.10049477 -0.058734268 0.040472064 -0.073641956
0.0016549933 -0.010551622 0.03308011 0.11332412 -0.10043527 0.11358875 0.082325555 -0.059904434
-0.039220497 -0.031797078 0.077210635 -0.035898987 0.0435271 -0.05287965 0.099303916 -0.018499337
0.11272096 -0.09699114 -0.042412944 0.08529271 0.043759752 -0.056395937 -0.0995764 -0.09347023
-0.099747725 -0.06831186 -0.07286451 -0.038918417 0.113483645 -0.027655968 -0.08006339 0.06575847
-0.07802667 -0.060722634 -0.024266096 -0.017805792 -0.07125585 -0.10270711 -0.11864083 -0.055999286
0.066253945 0.0060592033 0.093578815 0.024414886 -0.08915228 0.012968622 -0.03359062 0.074562415
0.03134334 0.12064846 -0.111127384 -0.058645323 -0.1028961 0.009721567 -0.0835173 -0.04944027
0.123012155 -0.046444546 0.060119305 0.079306856 0.09160961 0.10461292 0.080570154 0.013132661
0.09750894 0.12038731 -0.090871654 0.024159797 0.08726208 -0.08247725 0.052706245 0.07865917
0.008757734 -0.032141503 -0.008130369 0.11155488 -0.09948305 0.05315793 -0.06564937 0.08308835

encoder.layers.0.self_attn.out_proj.bias f4 [64]
00000000: 02a1 4a3d 2920 f0bd 89b9 863d f59d a3bb
00000010: 6ab0 cfbb 4310 a9bd 95c9 b2bd 14d9 7c3d
00000020: 2416 2b3d 4ac8 5a3d 9182 e3bd 5df7 4abd
00000030: 01f9 9ebd 80ce 9abd 0a33 613d 91ee a33a
00000040: feb4 0cbd b0e9 16bb c3c3 15bd dcc1 8a3b
00000050: 91f0 cfbd fb58 853c 7c56 ad3d f957 d23d
00000060: 21ae a13d f169 3cbd 3ac3 d2bd 26c3 d03d
00000070: 839b 003d ba1b 813d 5de1 f83d 3b86 3c3d
00000080: b86b d3bd 228b a93d 108c 65bd 9905 10bd
00000090: 0809 ae3d 683f a0bb 9bb0 313c ad2d b33c
000000a0: c0a9 563d 1d57 eabc 84cf cc3d 1ce8 49bd
000000b0: 2d86 d4bc 24fd acbb 82a3 7ebd 7e26 16bd
000000c0: d1d0 14bd d4b5 4dbd ba8f e73d ae3d 9ebb
000000d0: d121 ed3d 0f4c eb3d 8117 e93c 8bf9 8d3d
000000e0: d27f c4bd f3b0 603b 754f f03d 31f6 67bc
000000f0: ac16 95bd 0a2e c7ba 5bc3 2bbd 6bf4 9abd
0.049469955 -0.11724884 0.06578357 -0.004993195 -0.006338169 -0.08255055 -0.08729855 0.06173046
0.04176916 0.053413667 -0.11108888 -0.04955231 -0.077623375 -0.07558918 0.054980315 0.0012507011
-0.034352295 -0.0023027472 -0.036563646 0.0042345356 -0.10153306 0.01627778 0.08463761 0.10270686
0.078945406 -0.04599947 -0.10291143 0.101934716 0.031398308 0.063041165 0.1215236 0.04602645
-0.1032328 0.082784906 -0.056041777 -0.03516159 0.08497816 -0.004890371 0.010845329 0.021872366
0.05240798 -0.028605992 0.10000518 -0.049293622 -0.025942886 -0.0052792 -0.062167652 -0.036657803
-0.036331955 -0.050222233 0.113067105 -0.00482913 0.115787156 0.114891164 0.02845359 0.06932362
-0.09594692 0.0034285157 0.11733905 -0.014157818 -0.07279715 -0.0015196216 -0.041934352 -0.0756615
